data.pth (torch, 5418 bytes, 6 tensors)

l1.weight f4 [8, 54]
0	0x3ea19ce8	0.31565022
1	0x3f18987e	0.59607685
2	0xbf106b04	-0.5641329
3	0xbeb0fc7c	-0.3456763
4	0xbce4ca59	-0.027928518
5	0x3ea733bc	0.32656658
6	0x3b4744d4	0.0030406015
7	0xbe643ebd	-0.22289558
8	0xbe8c1b9a	-0.27364808
9	0xbec11f5f	-0.37719247
10	0xbe16575f	-0.14681767
11	0xbde764cb	-0.112985216
12	0x3e80b02a	0.25134403
13	0x3d793528	0.06084171
14	0x3ea99849	0.33123997
15	0xbe8bbbc4	-0.2729169
16	0xbe69891a	-0.22806206
17	0x3e3cffbf	0.18456934
18	0x3edb323c	0.42811763
19	0xbebfee9c	-0.37486732
20	0x3ec016d1	0.37517408
21	0xbebfefc9	-0.3748763
22	0xbebfefe6	-0.37487715
23	0xbf1514c4	-0.5823481
24	0xbd271f17	-0.040801134
25	0xbe6ed449	-0.23323168
26	0x3f0d81f3	0.5527641
27	0x3ec4a1f5	0.38404813
28	0x3eacacdf	0.3372564
29	0x3ecd8df5	0.40147367
30	0x3e1e7801	0.15475465
31	0xbd3f346a	-0.046680845
32	0x3e849816	0.25897282
33	0xbea9d599	-0.33170775
34	0x3eadc618	0.33940196
35	0xbd97395f	-0.073839895
36	0x3eb8b387	0.36074468
37	0xbee09538	-0.43863845
38	0xbe12df9f	-0.14343117
39	0xbdeb3f68	-0.11486703
40	0xbd6cd7a4	-0.05782284
41	0x3ec30c4c	0.3809532
42	0x3d06a748	0.032874376
43	0x3eb2673b	0.34844384
44	0xbec7e172	-0.3903919
45	0x3ec2c46c	0.38040483
46	0x3f5ac034	0.8544953
47	0x3edd635a	0.43239862
48	0x3ea76bdc	0.32699478
49	0x3f0d0318	0.55082846
50	0xbe00f372	-0.12592867
51	0x3e9e9600	0.30973816
52	0xbda18c3c	-0.07888076
53	0x3ebb0e13	0.36534175
54	0x3ebb8402	0.3662415
55	0x3e600969	0.2187859
56	0x3eec63b6	0.46169823
57	0xbcdb2f93	-0.026756084
58	0x3bab5ad9	0.0052293357
59	0x3e857493	0.26065502
60	0x3e1ab7e6	0.15109214
61	0x3eab6dc4	0.33482182
62	0x3eeef4ff	0.46671292
63	0x3ee0728a	0.43837386
64	0xbe944ee8	-0.2896645
65	0xbca0dd99	-0.019636916
66	0x3e95b989	0.29243115
67	0x3e8104a6	0.2519886
68	0x3e8429b6	0.25813073
69	0xbca6429e	-0.020295437
70	0xbd668bce	-0.056285672
71	0x3ed2d3df	0.4117727
72	0xbe74355f	-0.23848484
73	0xbe9fadc7	-0.3118727
74	0x3e7ac862	0.24490502
75	0xbeadb9f4	-0.33930933
76	0xbea7d829	-0.32782105
77	0xbefddab8	-0.49580932
78	0x3e1f35dd	0.15547891
79	0xbe82482b	-0.25445685
80	0xbe8d9635	-0.2765366
81	0x3e816bcf	0.25277564
82	0x3de5f60c	0.1122857
83	0x3e1519ab	0.14560573
84	0xbda49dc4	-0.08037904
85	0x3e919e9d	0.28441325
86	0x3ed769d6	0.42072934
87	0x3eee7ce8	0.4657967
88	0x3ee2169a	0.4415787
89	0x3e071391	0.13191058
90	0xbccb3d0c	-0.024809383
91	0x3f06caa8	0.5265298
92	0x3ebb88d4	0.3662783
93	0x3e982c56	0.29721326
94	0x3d981386	0.07425599
95	0xbedb52d1	-0.4283662
96	0x3d316147	0.04330566
97	0x3ecbb227	0.39784357
98	0x3e8c59d3	0.2741228
99	0x3f0fa264	0.56107163
100	0x3f161baa	0.5863596
101	0x3ec9c437	0.39407513
102	0xbd764428	-0.060123593
103	0xbec7ad0c	-0.38999212
104	0x3cf1b344	0.029504426
105	0xbe95e0f3	-0.29273185
106	0x3ec1db0b	0.3786243
107	0x3e93fbf3	0.2890316
108	0x3f0b1095	0.5432218
109	0x3f1a3d2d	0.60249597
110	0xbedd1e7c	-0.4318732
111	0xbdf5a299	-0.11993904
112	0xbeb22acd	-0.3479828
113	0xbee35ea0	-0.4440813
114	0xbd86ccef	-0.06582057
115	0xbe5b123a	-0.21393672
116	0xbe834972	-0.25641972
117	0xbe714ed0	-0.23565221
118	0xbeac5aac	-0.33662927
119	0x3ea09b98	0.3136871
120	0x3df2008b	0.1181651
121	0x3f0491af	0.51784796
122	0x3ea31db3	0.31858596
123	0x3e7f4da4	0.24931961
124	0xbddc1711	-0.10746587
125	0xbee35bbc	-0.44405925
126	0x3e36dd79	0.17857923
127	0xbec65372	-0.3873554
128	0x3ee61cac	0.4494375
129	0xbea08fce	-0.31359714
130	0xbeb09860	-0.34491253
131	0x3de14a73	0.11000528
132	0xbd21f5e7	-0.03954115
133	0xbe952b52	-0.29134613
134	0x3df82862	0.121170774
135	0x3f0b383a	0.5438267
136	0x3e93909f	0.28821275
137	0x3ed647f6	0.41851777
138	0xbe53ecee	-0.2069585
139	0x3efe6ad4	0.49690878
140	0x3ec48d4c	0.3838905
141	0xbe954877	-0.2915685
142	0x3f017cf5	0.50581294
143	0x3d116439	0.03549597
144	0x3e4c30c7	0.19940482
145	0xbaa23df5	-0.0012378084
146	0xbd4c32fd	-0.049853314
147	0xbe2331d8	-0.15936983
148	0xbebb8c49	-0.36630467
149	0x3e13280b	0.14370744
150	0x3eb181f2	0.34669453
151	0x3f01cc12	0.5070201
152	0xbcd19dec	-0.025587998
153	0x3f0542d6	0.5205511
154	0x3f60c3d7	0.8779883
155	0x3f192072	0.5981513
156	0x3c6cadaa	0.014445702
157	0x3e6422e6	0.22278938
158	0x3e2b0124	0.16699654
159	0x3d9e3fe5	0.07727031
160	0xbe04be38	-0.12963188
161	0x3e252db3	0.16130714
162	0xbe86e0dd	-0.26343432
163	0x3ea2518e	0.31702846
164	0xbe86c6e6	-0.26323622
165	0xbec04b92	-0.37557656
166	0xbd16b97a	-0.036797978
167	0x3f49bcec	0.78803897
168	0xbe0e3238	-0.13886344
169	0xbe8f2bce	-0.27963108
170	0xbe7cf5ba	-0.24703112
171	0xbec2a533	-0.38016662
172	0xbe388076	-0.18017754
173	0x3eb1dac3	0.34737214
174	0x3e952693	0.29130992
175	0x3f02f0a4	0.5114844
176	0x3e92bb8d	0.28658715
177	0x3ec1e85b	0.37872586
178	0xbe698b7d	-0.22807117
179	0x3f2c9dec	0.6742847
180	0x3f242f53	0.6413471
181	0xbed89a12	-0.42305046
182	0xbb6c52f4	-0.0036060186
183	0xbedcb01d	-0.43103114
184	0xbedc8fdc	-0.43078506
185	0x3e1749d1	0.14774252
186	0x3dd0896c	0.10182461
187	0xbe596b12	-0.2123225
188	0x3f0732e3	0.5281202
189	0x3ed14c7e	0.4087867
190	0x3f006227	0.5014977
191	0x3e4a667e	0.1976566
192	0x3ed56d33	0.41684875
193	0x3ee68225	0.45021167
194	0xbe069b6b	-0.13145225
195	0xbea02133	-0.3127533
196	0x3ea2a42c	0.31765878
197	0x3ea83a4c	0.32856977
198	0x3f0b0ef9	0.5431972
199	0xbe914526	-0.2837307
200	0xbe6fc716	-0.23415789
201	0xbd9bb725	-0.076032914
202	0x3ee6f0ab	0.4510549
203	0x3f37fa78	0.7186656
204	0x3ed4122e	0.4142012
205	0x3e42e787	0.19033633
206	0x3de23ef5	0.11047164
207	0x3e8e330c	0.2777332
208	0xbef320a4	-0.4748584
209	0xbe282014	-0.16418487
210	0x3e9e3d39	0.30906084
211	0x3f5b2010	0.855958
212	0x3eba6724	0.36406815
213	0x3f02f224	0.5115073
214	0xbdab6847	-0.08369499
215	0x3e0b7b63	0.13621287
216	0x3ee0eee1	0.4393225
217	0xbeab5c95	-0.33469072
218	0x3e8866c0	0.26640892
219	0x3d98bf81	0.074584015
220	0x3cbf658a	0.023363847
221	0x3f63e205	0.89016753
222	0x3e40163f	0.18758486
223	0x3e8eda9a	0.27901155
224	0x3eba493b	0.36383995
225	0x3eb413b5	0.35171285
226	0xbdc417c8	-0.095748484
227	0xbead0efb	-0.33800492
228	0x3e70566a	0.23470464
229	0xbe85913d	-0.2608737
230	0xbe03fc2b	-0.12889163
231	0xbe99a44c	-0.3000816
232	0xbda81943	-0.08207943
233	0x3f49693c	0.786762
234	0x3cddb706	0.027064811
235	0xbe691d0e	-0.2276499
236	0x3ede9c27	0.4347851
237	0xbe52f59c	-0.20601505
238	0xbe52f31e	-0.20600554
239	0xbea70dd8	-0.3262775
240	0x3d5c330f	0.05375963
241	0x3e09a363	0.13441233
242	0xbb03f04a	-0.0020132237
243	0xbefb6ed2	-0.49107987
244	0x3d173109	0.036911998
245	0xbeb3a79f	-0.35088822
246	0x3f131e73	0.57468337
247	0xbdd3d47c	-0.103432626
248	0x3eb282aa	0.34865314
249	0x3ef6560a	0.48112518
250	0xbe8ba6a7	-0.27275583
251	0xbdecbc1c	-0.115593165
252	0x3e1228f1	0.1427343
253	0x3e982e06	0.29722613
254	0x3e5217bf	0.20516871
255	0x3eae91a9	0.34095505

l1.bias f4 [8]
0	0x3ebff19d	0.37489024
1	0x3eb115be	0.345869
2	0x3ee364e8	0.44412923
3	0x3edcabd4	0.43099844
4	0x3f4b31bb	0.7937276
5	0x3f36bc43	0.71381015
6	0x3f1ad93d	0.6048773
7	0x3eede53f	0.46463963

l2.weight f4 [8, 8]
0	0x3efb1179	0.49036768
1	0x3fc2e448	1.5225916
2	0x3f23ee60	0.64035606
3	0xbf3b0b45	-0.7306407
4	0x3ee2aa1f	0.44270417
5	0x3f09a929	0.5377374
6	0xbf157a8d	-0.5839012
7	0x3ef28c27	0.47372553
8	0xbd410d76	-0.047131978
9	0x3f8d1073	1.1020645
10	0xbf8b6637	-1.0890568
11	0x3e05458a	0.13014808
12	0x3fa2ff30	1.2734127
13	0xbe957f9a	-0.29198915
14	0xbf12ca5a	-0.57340014
15	0x3fa40b65	1.2815977
16	0xbf955b92	-1.166857
17	0x3ebd0acd	0.36922303
18	0xbe2cad83	-0.16863064
19	0xbe92f6bf	-0.28703877
20	0xbe6b2765	-0.22964247
21	0x3f6bbb80	0.9208298
22	0x3fb4a63a	1.4113228
23	0x3f092051	0.53564936
24	0x3f299a75	0.6625131
25	0x3d984a70	0.07436073
26	0x3ef0cf7a	0.47033292
27	0xbeca301c	-0.3948983
28	0x3f37ba09	0.7176824
29	0x3f7a30f2	0.97730935
30	0x3ef52c35	0.4788529
31	0xbf9eb6af	-1.2399501
32	0xbf131848	-0.57458925
33	0x3ddd8ecd	0.10818253
34	0xbf5244f5	-0.8213647
35	0xbf39f739	-0.72642857
36	0x3ec49844	0.3839742
37	0x3f3a96b6	0.72886217
38	0x3f0fcd0b	0.56172246
39	0x3e23e295	0.16004403
40	0x3e139d1e	0.14415404
41	0x3f4ff57b	0.8123395
42	0x3f4ca9ec	0.7994678
43	0x3bcce6ba	0.0062530907
44	0xbf846831	-1.0344297
45	0xbe9124c7	-0.2834837
46	0x3d8c6e2a	0.068569496
47	0x3f55cb9e	0.8351382
48	0xbe344f4a	-0.17608371
49	0xbea2a576	-0.31766862
50	0xbe8ac169	-0.27100685
51	0xbdbbb244	-0.09164861
52	0xbe819a69	-0.25313118
53	0x3dcc8828	0.09986907
54	0xbeb37c72	-0.35055882
55	0xbe255876	-0.16147026
56	0x3f923c27	1.1424607
57	0x3ee03914	0.43793547
58	0x3f4c29d7	0.7975134
59	0x3f97d25c	1.1861072
60	0x3d855010	0.06509411
61	0xbe763758	-0.2404455
62	0x3e2b5d78	0.16734874
63	0x3f3f548c	0.74738383

l2.bias f4 [8]
0	0xbe9669b3	-0.29377517
1	0x3ee8c6b2	0.45464092
2	0x3ee01356	0.43764752
3	0x3f1c1658	0.60971594
4	0x3e7e106e	0.24810955
5	0x3bb1b792	0.0054234946
6	0xbe6e8ebf	-0.23296641
7	0x3e8ee842	0.27911574

l3.weight f4 [7, 8]
0	0xbfa7a821	-1.3098184
1	0xbf31510d	-0.692643
2	0x3f0945ef	0.53622335
3	0xbf99f06a	-1.2026494
4	0xbf852f91	-1.0405141
5	0x3e88938b	0.26675066
6	0x3dee09bc	0.116229504
7	0x3e865b90	0.26241732
8	0x3ebcbb8c	0.36861837
9	0xbf583e54	-0.84470105
10	0xbf843a55	-1.0330302
11	0xbf986374	-1.1905351
12	0xbe9b65a2	-0.30350977
13	0x3f063eab	0.52439374
14	0xbe2223f9	-0.15834035
15	0x3eb0a256	0.34498852
16	0xbe77db90	-0.2420485
17	0x3f80fbd8	1.0076857
18	0xbf8510fd	-1.039581
19	0xbf3e613b	-0.7436711
20	0xbfb78e7e	-1.434036
21	0xbf8cfcc6	-1.101464
22	0xbe874dd6	-0.26426572
23	0x3d675fdd	0.056487907
24	0xbf766835	-0.9625276
25	0xbf859c38	-1.0438299
26	0x3f527c8a	0.8222128
27	0x3f42521f	0.75906557
28	0x3f309830	0.6898222
29	0xbf136770	-0.5757971
30	0x3e4b382e	0.1984565
31	0xbf9cb104	-1.2241521
32	0xbfa520b8	-1.290061
33	0xbf97e39a	-1.1866333
34	0xbf6c3692	-0.9227077
35	0x3f03c2be	0.5146903
36	0xbf65c143	-0.8974802
37	0xbf60c88d	-0.87806016
38	0x3e78936a	0.24274984
39	0x3f16e3a1	0.58941084
40	0x3ebc1d1a	0.36740953
41	0x3ef3ed53	0.47642002
42	0x3e4db49e	0.20088431
43	0xbec04055	-0.3754908
44	0x3ec5d822	0.3864146
45	0xbeeb2094	-0.45923293
46	0xbe32af66	-0.17449722
47	0xbf9c5be8	-1.2215548
48	0x3f3adf53	0.72997016
49	0xbeb088ec	-0.34479463
50	0xbf6d2e19	-0.92648464
51	0x3f560da1	0.83614546
52	0xbf603314	-0.8757794
53	0xbf337c6c	-0.7011173
54	0xbeb1d95b	-0.34736142
55	0xbf1eee76	-0.6208261

l3.bias f4 [7]
0	0xbe4e02a6	-0.20118198
1	0xbebdea88	-0.37092996
2	0x3db5d31d	0.08878157
3	0x3e4ced54	0.20012408
4	0x3e6a1337	0.22858892
5	0xbf366631	-0.7124968
6	0xbed7efc7	-0.42175123
